…
[ INFO : 2024-02-19 16:10:02,175 ] - Train model from scratch ...
[ INFO : 2024-02-19 16:10:02,183 ] - Train model from scratch ...
[ INFO : 2024-02-19 16:10:02,183 ] - Train model from scratch ...
[ INFO : 2024-02-19 16:10:02,200 ] - start_epoch: 1
[ INFO : 2024-02-19 16:10:02,201 ] - WavLM_Base_MHFA(
[ INFO : 2024-02-19 16:10:02,201 ] -   (model): WavLM(
[ INFO : 2024-02-19 16:10:02,201 ] -     (feature_extractor): ConvFeatureExtractionModel(
[ INFO : 2024-02-19 16:10:02,201 ] -       (conv_layers): ModuleList(
[ INFO : 2024-02-19 16:10:02,201 ] -         (0): Sequential(
[ INFO : 2024-02-19 16:10:02,201 ] -           (0): Conv1d(1, 512, kernel_size=(10,), stride=(5,), bias=False)
[ INFO : 2024-02-19 16:10:02,201 ] -           (1): Dropout(p=0.0, inplace=False)
[ INFO : 2024-02-19 16:10:02,201 ] -           (2): Fp32GroupNorm(512, 512, eps=1e-05, affine=True)
[ INFO : 2024-02-19 16:10:02,201 ] -           (3): GELU(approximate=none)
[ INFO : 2024-02-19 16:10:02,201 ] -         )
[ INFO : 2024-02-19 16:10:02,201 ] -         (1): Sequential(
[ INFO : 2024-02-19 16:10:02,201 ] -           (0): Conv1d(512, 512, kernel_size=(3,), stride=(2,), bias=False)
[ INFO : 2024-02-19 16:10:02,201 ] -           (1): Dropout(p=0.0, inplace=False)
[ INFO : 2024-02-19 16:10:02,201 ] -           (2): GELU(approximate=none)
[ INFO : 2024-02-19 16:10:02,201 ] -         )
[ INFO : 2024-02-19 16:10:02,201 ] -         (2): Sequential(
[ INFO : 2024-02-19 16:10:02,201 ] -           (0): Conv1d(512, 512, kernel_size=(3,), stride=(2,), bias=False)
[ INFO : 2024-02-19 16:10:02,201 ] -           (1): Dropout(p=0.0, inplace=False)
[ INFO : 2024-02-19 16:10:02,201 ] -           (2): GELU(approximate=none)
[ INFO : 2024-02-19 16:10:02,202 ] -         )
[ INFO : 2024-02-19 16:10:02,202 ] -         (3): Sequential(
[ INFO : 2024-02-19 16:10:02,202 ] -           (0): Conv1d(512, 512, kernel_size=(3,), stride=(2,), bias=False)
[ INFO : 2024-02-19 16:10:02,202 ] -           (1): Dropout(p=0.0, inplace=False)
[ INFO : 2024-02-19 16:10:02,202 ] -           (2): GELU(approximate=none)
[ INFO : 2024-02-19 16:10:02,202 ] -         )
[ INFO : 2024-02-19 16:10:02,202 ] -         (4): Sequential(
[ INFO : 2024-02-19 16:10:02,202 ] -           (0): Conv1d(512, 512, kernel_size=(3,), stride=(2,), bias=False)
[ INFO : 2024-02-19 16:10:02,202 ] -           (1): Dropout(p=0.0, inplace=False)
[ INFO : 2024-02-19 16:10:02,202 ] -           (2): GELU(approximate=none)
[ INFO : 2024-02-19 16:10:02,202 ] -         )
[ INFO : 2024-02-19 16:10:02,202 ] -         (5): Sequential(
[ INFO : 2024-02-19 16:10:02,202 ] -           (0): Conv1d(512, 512, kernel_size=(2,), stride=(2,), bias=False)
[ INFO : 2024-02-19 16:10:02,202 ] -           (1): Dropout(p=0.0, inplace=False)
[ INFO : 2024-02-19 16:10:02,202 ] -           (2): GELU(approximate=none)
[ INFO : 2024-02-19 16:10:02,202 ] -         )
[ INFO : 2024-02-19 16:10:02,202 ] -         (6): Sequential(
[ INFO : 2024-02-19 16:10:02,202 ] -           (0): Conv1d(512, 512, kernel_size=(2,), stride=(2,), bias=False)
[ INFO : 2024-02-19 16:10:02,202 ] -           (1): Dropout(p=0.0, inplace=False)
[ INFO : 2024-02-19 16:10:02,202 ] -           (2): GELU(approximate=none)
[ INFO : 2024-02-19 16:10:02,202 ] -         )
[ INFO : 2024-02-19 16:10:02,202 ] -       )
[ INFO : 2024-02-19 16:10:02,202 ] -     )
[ INFO : 2024-02-19 16:10:02,202 ] -     (post_extract_proj): Linear(in_features=512, out_features=768, bias=True)
[ INFO : 2024-02-19 16:10:02,202 ] -     (dropout_input): Dropout(p=0.1, inplace=False)
[ INFO : 2024-02-19 16:10:02,202 ] -     (dropout_features): Dropout(p=0.1, inplace=False)
[ INFO : 2024-02-19 16:10:02,202 ] -     (encoder): TransformerEncoder(
[ INFO : 2024-02-19 16:10:02,202 ] -       (pos_conv): Sequential(
[ INFO : 2024-02-19 16:10:02,202 ] -         (0): Conv1d(768, 768, kernel_size=(128,), stride=(1,), padding=(64,), groups=16)
[ INFO : 2024-02-19 16:10:02,202 ] -         (1): SamePad()
[ INFO : 2024-02-19 16:10:02,202 ] -         (2): GELU(approximate=none)
[ INFO : 2024-02-19 16:10:02,202 ] -       )
[ INFO : 2024-02-19 16:10:02,202 ] -       (layers): ModuleList(
[ INFO : 2024-02-19 16:10:02,202 ] -         (0): TransformerSentenceEncoderLayer(
[ INFO : 2024-02-19 16:10:02,202 ] -           (self_attn): MultiheadAttention(
[ INFO : 2024-02-19 16:10:02,202 ] -             (dropout_module): Dropout(p=0.1, inplace=False)
[ INFO : 2024-02-19 16:10:02,202 ] -             (relative_attention_bias): Embedding(320, 12)
[ INFO : 2024-02-19 16:10:02,202 ] -             (k_proj): Linear(in_features=768, out_features=768, bias=True)
[ INFO : 2024-02-19 16:10:02,203 ] -             (v_proj): Linear(in_features=768, out_features=768, bias=True)
[ INFO : 2024-02-19 16:10:02,203 ] -             (q_proj): Linear(in_features=768, out_features=768, bias=True)
[ INFO : 2024-02-19 16:10:02,203 ] -             (out_proj): Linear(in_features=768, out_features=768, bias=True)
[ INFO : 2024-02-19 16:10:02,203 ] -             (grep_linear): Linear(in_features=64, out_features=8, bias=True)
[ INFO : 2024-02-19 16:10:02,203 ] -           )
[ INFO : 2024-02-19 16:10:02,203 ] -           (dropout1): Dropout(p=0.1, inplace=False)
[ INFO : 2024-02-19 16:10:02,203 ] -           (dropout2): Dropout(p=0.0, inplace=False)
[ INFO : 2024-02-19 16:10:02,203 ] -           (dropout3): Dropout(p=0.1, inplace=False)
[ INFO : 2024-02-19 16:10:02,203 ] -           (self_attn_layer_norm): LayerNorm((768,), eps=1e-05, elementwise_affine=True)
[ INFO : 2024-02-19 16:10:02,203 ] -           (fc1): Linear(in_features=768, out_features=3072, bias=True)
[ INFO : 2024-02-19 16:10:02,203 ] -           (fc2): Linear(in_features=3072, out_features=768, bias=True)
[ INFO : 2024-02-19 16:10:02,203 ] -           (final_layer_norm): LayerNorm((768,), eps=1e-05, elementwise_affine=True)
[ INFO : 2024-02-19 16:10:02,203 ] -         )
[ INFO : 2024-02-19 16:10:02,203 ] -         (1): TransformerSentenceEncoderLayer(
[ INFO : 2024-02-19 16:10:02,203 ] -           (self_attn): MultiheadAttention(
[ INFO : 2024-02-19 16:10:02,203 ] -             (dropout_module): Dropout(p=0.1, inplace=False)
[ INFO : 2024-02-19 16:10:02,203 ] -             (k_proj): Linear(in_features=768, out_features=768, bias=True)
[ INFO : 2024-02-19 16:10:02,203 ] -             (v_proj): Linear(in_features=768, out_features=768, bias=True)
[ INFO : 2024-02-19 16:10:02,203 ] -             (q_proj): Linear(in_features=768, out_features=768, bias=True)
[ INFO : 2024-02-19 16:10:02,203 ] -             (out_proj): Linear(in_features=768, out_features=768, bias=True)
[ INFO : 2024-02-19 16:10:02,203 ] -             (grep_linear): Linear(in_features=64, out_features=8, bias=True)
[ INFO : 2024-02-19 16:10:02,203 ] -           )
[ INFO : 2024-02-19 16:10:02,203 ] -           (dropout1): Dropout(p=0.1, inplace=False)
[ INFO : 2024-02-19 16:10:02,203 ] -           (dropout2): Dropout(p=0.0, inplace=False)
[ INFO : 2024-02-19 16:10:02,203 ] -           (dropout3): Dropout(p=0.1, inplace=False)
[ INFO : 2024-02-19 16:10:02,203 ] -           (self_attn_layer_norm): LayerNorm((768,), eps=1e-05, elementwise_affine=True)
[ INFO : 2024-02-19 16:10:02,203 ] -           (fc1): Linear(in_features=768, out_features=3072, bias=True)
[ INFO : 2024-02-19 16:10:02,203 ] -           (fc2): Linear(in_features=3072, out_features=768, bias=True)
[ INFO : 2024-02-19 16:10:02,203 ] -           (final_layer_norm): LayerNorm((768,), eps=1e-05, elementwise_affine=True)
[ INFO : 2024-02-19 16:10:02,203 ] -         )
[ INFO : 2024-02-19 16:10:02,203 ] -         (2): TransformerSentenceEncoderLayer(
[ INFO : 2024-02-19 16:10:02,203 ] -           (self_attn): MultiheadAttention(
[ INFO : 2024-02-19 16:10:02,203 ] -             (dropout_module): Dropout(p=0.1, inplace=False)
[ INFO : 2024-02-19 16:10:02,203 ] -             (k_proj): Linear(in_features=768, out_features=768, bias=True)
[ INFO : 2024-02-19 16:10:02,203 ] -             (v_proj): Linear(in_features=768, out_features=768, bias=True)
[ INFO : 2024-02-19 16:10:02,203 ] -             (q_proj): Linear(in_features=768, out_features=768, bias=True)
[ INFO : 2024-02-19 16:10:02,203 ] -             (out_proj): Linear(in_features=768, out_features=768, bias=True)
[ INFO : 2024-02-19 16:10:02,203 ] -             (grep_linear): Linear(in_features=64, out_features=8, bias=True)
[ INFO : 2024-02-19 16:10:02,203 ] -           )
[ INFO : 2024-02-19 16:10:02,203 ] -           (dropout1): Dropout(p=0.1, inplace=False)
[ INFO : 2024-02-19 16:10:02,203 ] -           (dropout2): Dropout(p=0.0, inplace=False)
[ INFO : 2024-02-19 16:10:02,204 ] -           (dropout3): Dropout(p=0.1, inplace=False)
[ INFO : 2024-02-19 16:10:02,204 ] -           (self_attn_layer_norm): LayerNorm((768,), eps=1e-05, elementwise_affine=True)
[ INFO : 2024-02-19 16:10:02,204 ] -           (fc1): Linear(in_features=768, out_features=3072, bias=True)
[ INFO : 2024-02-19 16:10:02,204 ] -           (fc2): Linear(in_features=3072, out_features=768, bias=True)
[ INFO : 2024-02-19 16:10:02,204 ] -           (final_layer_norm): LayerNorm((768,), eps=1e-05, elementwise_affine=True)
[ INFO : 2024-02-19 16:10:02,204 ] -         )
[ INFO : 2024-02-19 16:10:02,204 ] -         (3): TransformerSentenceEncoderLayer(
[ INFO : 2024-02-19 16:10:02,204 ] -           (self_attn): MultiheadAttention(
[ INFO : 2024-02-19 16:10:02,204 ] -             (dropout_module): Dropout(p=0.1, inplace=False)
[ INFO : 2024-02-19 16:10:02,204 ] -             (k_proj): Linear(in_features=768, out_features=768, bias=True)
[ INFO : 2024-02-19 16:10:02,204 ] -             (v_proj): Linear(in_features=768, out_features=768, bias=True)
[ INFO : 2024-02-19 16:10:02,204 ] -             (q_proj): Linear(in_features=768, out_features=768, bias=True)
[ INFO : 2024-02-19 16:10:02,204 ] -             (out_proj): Linear(in_features=768, out_features=768, bias=True)
[ INFO : 2024-02-19 16:10:02,204 ] -             (grep_linear): Linear(in_features=64, out_features=8, bias=True)
[ INFO : 2024-02-19 16:10:02,204 ] -           )
[ INFO : 2024-02-19 16:10:02,204 ] -           (dropout1): Dropout(p=0.1, inplace=False)
[ INFO : 2024-02-19 16:10:02,204 ] -           (dropout2): Dropout(p=0.0, inplace=False)
[ INFO : 2024-02-19 16:10:02,204 ] -           (dropout3): Dropout(p=0.1, inplace=False)
[ INFO : 2024-02-19 16:10:02,204 ] -           (self_attn_layer_norm): LayerNorm((768,), eps=1e-05, elementwise_affine=True)
[ INFO : 2024-02-19 16:10:02,204 ] -           (fc1): Linear(in_features=768, out_features=3072, bias=True)
[ INFO : 2024-02-19 16:10:02,204 ] -           (fc2): Linear(in_features=3072, out_features=768, bias=True)
[ INFO : 2024-02-19 16:10:02,204 ] -           (final_layer_norm): LayerNorm((768,), eps=1e-05, elementwise_affine=True)
[ INFO : 2024-02-19 16:10:02,204 ] -         )
[ INFO : 2024-02-19 16:10:02,204 ] -         (4): TransformerSentenceEncoderLayer(
[ INFO : 2024-02-19 16:10:02,204 ] -           (self_attn): MultiheadAttention(
[ INFO : 2024-02-19 16:10:02,204 ] -             (dropout_module): Dropout(p=0.1, inplace=False)
[ INFO : 2024-02-19 16:10:02,204 ] -             (k_proj): Linear(in_features=768, out_features=768, bias=True)
[ INFO : 2024-02-19 16:10:02,204 ] -             (v_proj): Linear(in_features=768, out_features=768, bias=True)
[ INFO : 2024-02-19 16:10:02,204 ] -             (q_proj): Linear(in_features=768, out_features=768, bias=True)
[ INFO : 2024-02-19 16:10:02,204 ] -             (out_proj): Linear(in_features=768, out_features=768, bias=True)
[ INFO : 2024-02-19 16:10:02,204 ] -             (grep_linear): Linear(in_features=64, out_features=8, bias=True)
[ INFO : 2024-02-19 16:10:02,204 ] -           )
[ INFO : 2024-02-19 16:10:02,204 ] -           (dropout1): Dropout(p=0.1, inplace=False)
[ INFO : 2024-02-19 16:10:02,204 ] -           (dropout2): Dropout(p=0.0, inplace=False)
[ INFO : 2024-02-19 16:10:02,204 ] -           (dropout3): Dropout(p=0.1, inplace=False)
[ INFO : 2024-02-19 16:10:02,204 ] -           (self_attn_layer_norm): LayerNorm((768,), eps=1e-05, elementwise_affine=True)
[ INFO : 2024-02-19 16:10:02,204 ] -           (fc1): Linear(in_features=768, out_features=3072, bias=True)
[ INFO : 2024-02-19 16:10:02,204 ] -           (fc2): Linear(in_features=3072, out_features=768, bias=True)
[ INFO : 2024-02-19 16:10:02,204 ] -           (final_layer_norm): LayerNorm((768,), eps=1e-05, elementwise_affine=True)
[ INFO : 2024-02-19 16:10:02,204 ] -         )
[ INFO : 2024-02-19 16:10:02,205 ] -         (5): TransformerSentenceEncoderLayer(
[ INFO : 2024-02-19 16:10:02,205 ] -           (self_attn): MultiheadAttention(
[ INFO : 2024-02-19 16:10:02,205 ] -             (dropout_module): Dropout(p=0.1, inplace=False)
[ INFO : 2024-02-19 16:10:02,205 ] -             (k_proj): Linear(in_features=768, out_features=768, bias=True)
[ INFO : 2024-02-19 16:10:02,205 ] -             (v_proj): Linear(in_features=768, out_features=768, bias=True)
[ INFO : 2024-02-19 16:10:02,205 ] -             (q_proj): Linear(in_features=768, out_features=768, bias=True)
[ INFO : 2024-02-19 16:10:02,205 ] -             (out_proj): Linear(in_features=768, out_features=768, bias=True)
[ INFO : 2024-02-19 16:10:02,205 ] -             (grep_linear): Linear(in_features=64, out_features=8, bias=True)
[ INFO : 2024-02-19 16:10:02,205 ] -           )
[ INFO : 2024-02-19 16:10:02,205 ] -           (dropout1): Dropout(p=0.1, inplace=False)
[ INFO : 2024-02-19 16:10:02,205 ] -           (dropout2): Dropout(p=0.0, inplace=False)
[ INFO : 2024-02-19 16:10:02,205 ] -           (dropout3): Dropout(p=0.1, inplace=False)
[ INFO : 2024-02-19 16:10:02,205 ] -           (self_attn_layer_norm): LayerNorm((768,), eps=1e-05, elementwise_affine=True)
[ INFO : 2024-02-19 16:10:02,205 ] -           (fc1): Linear(in_features=768, out_features=3072, bias=True)
[ INFO : 2024-02-19 16:10:02,205 ] -           (fc2): Linear(in_features=3072, out_features=768, bias=True)
[ INFO : 2024-02-19 16:10:02,205 ] -           (final_layer_norm): LayerNorm((768,), eps=1e-05, elementwise_affine=True)
[ INFO : 2024-02-19 16:10:02,205 ] -         )
[ INFO : 2024-02-19 16:10:02,205 ] -         (6): TransformerSentenceEncoderLayer(
[ INFO : 2024-02-19 16:10:02,205 ] -           (self_attn): MultiheadAttention(
[ INFO : 2024-02-19 16:10:02,205 ] -             (dropout_module): Dropout(p=0.1, inplace=False)
[ INFO : 2024-02-19 16:10:02,205 ] -             (k_proj): Linear(in_features=768, out_features=768, bias=True)
[ INFO : 2024-02-19 16:10:02,205 ] -             (v_proj): Linear(in_features=768, out_features=768, bias=True)
[ INFO : 2024-02-19 16:10:02,205 ] -             (q_proj): Linear(in_features=768, out_features=768, bias=True)
[ INFO : 2024-02-19 16:10:02,205 ] -             (out_proj): Linear(in_features=768, out_features=768, bias=True)
[ INFO : 2024-02-19 16:10:02,205 ] -             (grep_linear): Linear(in_features=64, out_features=8, bias=True)
[ INFO : 2024-02-19 16:10:02,205 ] -           )
[ INFO : 2024-02-19 16:10:02,205 ] -           (dropout1): Dropout(p=0.1, inplace=False)
[ INFO : 2024-02-19 16:10:02,205 ] -           (dropout2): Dropout(p=0.0, inplace=False)
[ INFO : 2024-02-19 16:10:02,205 ] -           (dropout3): Dropout(p=0.1, inplace=False)
[ INFO : 2024-02-19 16:10:02,205 ] -           (self_attn_layer_norm): LayerNorm((768,), eps=1e-05, elementwise_affine=True)
[ INFO : 2024-02-19 16:10:02,205 ] -           (fc1): Linear(in_features=768, out_features=3072, bias=True)
[ INFO : 2024-02-19 16:10:02,205 ] -           (fc2): Linear(in_features=3072, out_features=768, bias=True)
[ INFO : 2024-02-19 16:10:02,205 ] -           (final_layer_norm): LayerNorm((768,), eps=1e-05, elementwise_affine=True)
[ INFO : 2024-02-19 16:10:02,205 ] -         )
[ INFO : 2024-02-19 16:10:02,205 ] -         (7): TransformerSentenceEncoderLayer(
[ INFO : 2024-02-19 16:10:02,205 ] -           (self_attn): MultiheadAttention(
[ INFO : 2024-02-19 16:10:02,205 ] -             (dropout_module): Dropout(p=0.1, inplace=False)
[ INFO : 2024-02-19 16:10:02,205 ] -             (k_proj): Linear(in_features=768, out_features=768, bias=True)
[ INFO : 2024-02-19 16:10:02,205 ] -             (v_proj): Linear(in_features=768, out_features=768, bias=True)
[ INFO : 2024-02-19 16:10:02,205 ] -             (q_proj): Linear(in_features=768, out_features=768, bias=True)
[ INFO : 2024-02-19 16:10:02,206 ] -             (out_proj): Linear(in_features=768, out_features=768, bias=True)
[ INFO : 2024-02-19 16:10:02,206 ] -             (grep_linear): Linear(in_features=64, out_features=8, bias=True)
[ INFO : 2024-02-19 16:10:02,206 ] -           )
[ INFO : 2024-02-19 16:10:02,206 ] -           (dropout1): Dropout(p=0.1, inplace=False)
[ INFO : 2024-02-19 16:10:02,206 ] -           (dropout2): Dropout(p=0.0, inplace=False)
[ INFO : 2024-02-19 16:10:02,206 ] -           (dropout3): Dropout(p=0.1, inplace=False)
[ INFO : 2024-02-19 16:10:02,206 ] -           (self_attn_layer_norm): LayerNorm((768,), eps=1e-05, elementwise_affine=True)
[ INFO : 2024-02-19 16:10:02,206 ] -           (fc1): Linear(in_features=768, out_features=3072, bias=True)
[ INFO : 2024-02-19 16:10:02,206 ] -           (fc2): Linear(in_features=3072, out_features=768, bias=True)
[ INFO : 2024-02-19 16:10:02,206 ] -           (final_layer_norm): LayerNorm((768,), eps=1e-05, elementwise_affine=True)
[ INFO : 2024-02-19 16:10:02,206 ] -         )
[ INFO : 2024-02-19 16:10:02,206 ] -         (8): TransformerSentenceEncoderLayer(
[ INFO : 2024-02-19 16:10:02,206 ] -           (self_attn): MultiheadAttention(
[ INFO : 2024-02-19 16:10:02,206 ] -             (dropout_module): Dropout(p=0.1, inplace=False)
[ INFO : 2024-02-19 16:10:02,206 ] -             (k_proj): Linear(in_features=768, out_features=768, bias=True)
[ INFO : 2024-02-19 16:10:02,206 ] -             (v_proj): Linear(in_features=768, out_features=768, bias=True)
[ INFO : 2024-02-19 16:10:02,206 ] -             (q_proj): Linear(in_features=768, out_features=768, bias=True)
[ INFO : 2024-02-19 16:10:02,206 ] -             (out_proj): Linear(in_features=768, out_features=768, bias=True)
[ INFO : 2024-02-19 16:10:02,206 ] -             (grep_linear): Linear(in_features=64, out_features=8, bias=True)
[ INFO : 2024-02-19 16:10:02,206 ] -           )
[ INFO : 2024-02-19 16:10:02,206 ] -           (dropout1): Dropout(p=0.1, inplace=False)
[ INFO : 2024-02-19 16:10:02,206 ] -           (dropout2): Dropout(p=0.0, inplace=False)
[ INFO : 2024-02-19 16:10:02,206 ] -           (dropout3): Dropout(p=0.1, inplace=False)
[ INFO : 2024-02-19 16:10:02,206 ] -           (self_attn_layer_norm): LayerNorm((768,), eps=1e-05, elementwise_affine=True)
[ INFO : 2024-02-19 16:10:02,206 ] -           (fc1): Linear(in_features=768, out_features=3072, bias=True)
[ INFO : 2024-02-19 16:10:02,206 ] -           (fc2): Linear(in_features=3072, out_features=768, bias=True)
[ INFO : 2024-02-19 16:10:02,206 ] -           (final_layer_norm): LayerNorm((768,), eps=1e-05, elementwise_affine=True)
[ INFO : 2024-02-19 16:10:02,206 ] -         )
[ INFO : 2024-02-19 16:10:02,206 ] -         (9): TransformerSentenceEncoderLayer(
[ INFO : 2024-02-19 16:10:02,206 ] -           (self_attn): MultiheadAttention(
[ INFO : 2024-02-19 16:10:02,206 ] -             (dropout_module): Dropout(p=0.1, inplace=False)
[ INFO : 2024-02-19 16:10:02,206 ] -             (k_proj): Linear(in_features=768, out_features=768, bias=True)
[ INFO : 2024-02-19 16:10:02,206 ] -             (v_proj): Linear(in_features=768, out_features=768, bias=True)
[ INFO : 2024-02-19 16:10:02,206 ] -             (q_proj): Linear(in_features=768, out_features=768, bias=True)
[ INFO : 2024-02-19 16:10:02,206 ] -             (out_proj): Linear(in_features=768, out_features=768, bias=True)
[ INFO : 2024-02-19 16:10:02,206 ] -             (grep_linear): Linear(in_features=64, out_features=8, bias=True)
[ INFO : 2024-02-19 16:10:02,206 ] -           )
[ INFO : 2024-02-19 16:10:02,206 ] -           (dropout1): Dropout(p=0.1, inplace=False)
[ INFO : 2024-02-19 16:10:02,206 ] -           (dropout2): Dropout(p=0.0, inplace=False)
[ INFO : 2024-02-19 16:10:02,206 ] -           (dropout3): Dropout(p=0.1, inplace=False)
[ INFO : 2024-02-19 16:10:02,207 ] -           (self_attn_layer_norm): LayerNorm((768,), eps=1e-05, elementwise_affine=True)
[ INFO : 2024-02-19 16:10:02,207 ] -           (fc1): Linear(in_features=768, out_features=3072, bias=True)
[ INFO : 2024-02-19 16:10:02,207 ] -           (fc2): Linear(in_features=3072, out_features=768, bias=True)
[ INFO : 2024-02-19 16:10:02,207 ] -           (final_layer_norm): LayerNorm((768,), eps=1e-05, elementwise_affine=True)
[ INFO : 2024-02-19 16:10:02,207 ] -         )
[ INFO : 2024-02-19 16:10:02,207 ] -         (10): TransformerSentenceEncoderLayer(
[ INFO : 2024-02-19 16:10:02,207 ] -           (self_attn): MultiheadAttention(
[ INFO : 2024-02-19 16:10:02,207 ] -             (dropout_module): Dropout(p=0.1, inplace=False)
[ INFO : 2024-02-19 16:10:02,207 ] -             (k_proj): Linear(in_features=768, out_features=768, bias=True)
[ INFO : 2024-02-19 16:10:02,207 ] -             (v_proj): Linear(in_features=768, out_features=768, bias=True)
[ INFO : 2024-02-19 16:10:02,207 ] -             (q_proj): Linear(in_features=768, out_features=768, bias=True)
[ INFO : 2024-02-19 16:10:02,207 ] -             (out_proj): Linear(in_features=768, out_features=768, bias=True)
[ INFO : 2024-02-19 16:10:02,207 ] -             (grep_linear): Linear(in_features=64, out_features=8, bias=True)
[ INFO : 2024-02-19 16:10:02,207 ] -           )
[ INFO : 2024-02-19 16:10:02,207 ] -           (dropout1): Dropout(p=0.1, inplace=False)
[ INFO : 2024-02-19 16:10:02,207 ] -           (dropout2): Dropout(p=0.0, inplace=False)
[ INFO : 2024-02-19 16:10:02,207 ] -           (dropout3): Dropout(p=0.1, inplace=False)
[ INFO : 2024-02-19 16:10:02,207 ] -           (self_attn_layer_norm): LayerNorm((768,), eps=1e-05, elementwise_affine=True)
[ INFO : 2024-02-19 16:10:02,207 ] -           (fc1): Linear(in_features=768, out_features=3072, bias=True)
[ INFO : 2024-02-19 16:10:02,207 ] -           (fc2): Linear(in_features=3072, out_features=768, bias=True)
[ INFO : 2024-02-19 16:10:02,207 ] -           (final_layer_norm): LayerNorm((768,), eps=1e-05, elementwise_affine=True)
[ INFO : 2024-02-19 16:10:02,207 ] -         )
[ INFO : 2024-02-19 16:10:02,207 ] -         (11): TransformerSentenceEncoderLayer(
[ INFO : 2024-02-19 16:10:02,207 ] -           (self_attn): MultiheadAttention(
[ INFO : 2024-02-19 16:10:02,207 ] -             (dropout_module): Dropout(p=0.1, inplace=False)
[ INFO : 2024-02-19 16:10:02,207 ] -             (k_proj): Linear(in_features=768, out_features=768, bias=True)
[ INFO : 2024-02-19 16:10:02,207 ] -             (v_proj): Linear(in_features=768, out_features=768, bias=True)
[ INFO : 2024-02-19 16:10:02,207 ] -             (q_proj): Linear(in_features=768, out_features=768, bias=True)
[ INFO : 2024-02-19 16:10:02,207 ] -             (out_proj): Linear(in_features=768, out_features=768, bias=True)
[ INFO : 2024-02-19 16:10:02,207 ] -             (grep_linear): Linear(in_features=64, out_features=8, bias=True)
[ INFO : 2024-02-19 16:10:02,207 ] -           )
[ INFO : 2024-02-19 16:10:02,207 ] -           (dropout1): Dropout(p=0.1, inplace=False)
[ INFO : 2024-02-19 16:10:02,207 ] -           (dropout2): Dropout(p=0.0, inplace=False)
[ INFO : 2024-02-19 16:10:02,207 ] -           (dropout3): Dropout(p=0.1, inplace=False)
[ INFO : 2024-02-19 16:10:02,207 ] -           (self_attn_layer_norm): LayerNorm((768,), eps=1e-05, elementwise_affine=True)
[ INFO : 2024-02-19 16:10:02,207 ] -           (fc1): Linear(in_features=768, out_features=3072, bias=True)
[ INFO : 2024-02-19 16:10:02,207 ] -           (fc2): Linear(in_features=3072, out_features=768, bias=True)
[ INFO : 2024-02-19 16:10:02,207 ] -           (final_layer_norm): LayerNorm((768,), eps=1e-05, elementwise_affine=True)
[ INFO : 2024-02-19 16:10:02,207 ] -         )
[ INFO : 2024-02-19 16:10:02,207 ] -       )
[ INFO : 2024-02-19 16:10:02,208 ] -       (layer_norm): LayerNorm((768,), eps=1e-05, elementwise_affine=True)
[ INFO : 2024-02-19 16:10:02,208 ] -     )
[ INFO : 2024-02-19 16:10:02,208 ] -     (layer_norm): LayerNorm((512,), eps=1e-05, elementwise_affine=True)
[ INFO : 2024-02-19 16:10:02,208 ] -   )
[ INFO : 2024-02-19 16:10:02,208 ] -   (back_end): MHFA(
[ INFO : 2024-02-19 16:10:02,208 ] -     (cmp_linear_k): Linear(in_features=768, out_features=128, bias=True)
[ INFO : 2024-02-19 16:10:02,208 ] -     (cmp_linear_v): Linear(in_features=768, out_features=128, bias=True)
[ INFO : 2024-02-19 16:10:02,208 ] -     (att_head): Linear(in_features=128, out_features=64, bias=True)
[ INFO : 2024-02-19 16:10:02,208 ] -     (pooling_fc): Linear(in_features=8192, out_features=256, bias=True)
[ INFO : 2024-02-19 16:10:02,208 ] -   )
[ INFO : 2024-02-19 16:10:02,208 ] -   (projection): ArcMarginProduct_intertopk_subcenter(in_features=256, out_features=5994, scale=32.0, margin=0.0, easy_margin=False,K=3, mp=0.06, k_top=5, do_lm=False)
[ INFO : 2024-02-19 16:10:02,208 ] - )
[ INFO : 2024-02-19 16:10:02,208 ] - start_epoch: 1
[ INFO : 2024-02-19 16:10:02,208 ] - start_epoch: 1
…
